Luna/data.pth (torch, 5015 bytes, 6 tensors)

l1.weight f4 [8, 54]
00000000: 1400 91bc 4e95 093f de78 843e 4dae 813e
00000010: b787 063f f21b 43be 5dc6 a43e ec56 a33e
00000020: c68b 603e 7e7f bb3e 7d86 083f 358c a3be
00000030: 24ea df3d 68de b0be 4892 903e 41c1 ffbd
00000040: 87e2 d53e b67c 0ebe cf7b d5be 7ddf 1f3f
00000050: 1b24 26bd d7aa 2a3f 131d 263f e677 043e
00000060: 227d 243e 9462 643e b49f dabe f856 fb3e
00000070: 574d adbe e704 053f fbbe 63bc 6e4b 4bbe
00000080: 3fa8 f03c 646f 7d3e 0d82 cb3e 10d7 8abe
00000090: 9b56 1cbe a80b c33e 08a2 d93e dd6c 453e
000000a0: 3084 b3bd 36fe 09bf 70a8 96be 2d8e af3e
000000b0: b473 193d 0cb3 173f 3466 06bf 024e 813c
000000c0: 42cb 273e c743 debe 6827 99be a100 50be
000000d0: cc9d b53e 3472 8a3e 8d21 1d3f b9b9 da3d
000000e0: dba3 91be 6ada c7be 2aae 0fbd 538a f0be
000000f0: efb9 0fbe 2b8b b4be 7716 b0be 082e e5be
00000100: cf7c 33be 727e b23e 3247 a63e 212b 113f
00000110: 00af afbd 6b8c fc3c 37bd 72be 5588 f0be
00000120: 937b ef3e 7652 f0be 119b 063f a7a2 e6be
00000130: dd6c f0be 42ef 2c3e 3940 60bb 5e5c b2be
00000140: 3275 f93e 98e7 28be 73ea b73e df96 24be
00000150: c37c e1be 90e8 e33e bf71 ac3e c5da e2be
00000160: 8d4c 24bc b468 0b3e 9460 d83e b427 3ebe
00000170: b0a2 acbd a563 07be 3848 65be 5b88 dd3e
00000180: 7c59 b13e 0942 29be 8fa5 213e 8f2f 26bd
00000190: 8af7 673f 9b7c b43e fdb2 953e e3b6 313f
000001a0: ad17 8b3d 3ba3 e63e 67cd 23be f4c4 4b3e
000001b0: 71e4 22be 4360 afbe d77e 8f3e a0d4 923e
000001c0: d56d 963e e025 94be bcdd c43d 9536 853e
000001d0: 0a19 283e 13d6 9f3d bcdf 703e 3210 293f
000001e0: f813 523e c045 223f 7e92 6dbd eedc db3e
000001f0: f22f 7d3e a56d b1be f1e9 23be 21be 9a3e
00000200: e36f 1bbe de12 cb3e 3ebb e13e 71f1 1b3f
00000210: 626c d73e 7dd6 913e 9d0c c2be 1587 a9be
00000220: 970f 6ebe d781 6abe e511 90bc 7ba6 1b3f
00000230: 0ca9 e2bc 8902 d73e ee4f 15be c521 073f
00000240: 80e7 36bd 6a53 e73d f53a 2a3e 8ddb 133e
00000250: 2a7d edbd 9d09 edbe ece0 133f 59e1 72be
00000260: 0ce0 423f 33ee 3fbe 2aa5 27bf d347 9dbe
00000270: 1edb 8d3e ca74 c0be 8a85 033f 27f4 1fbe
00000280: 0d62 4e3e 4a46 933d b663 81be a330 023f
00000290: 841b 8f3e 9a4e 29be bc07 57be 3897 2b3f
000002a0: 0b35 9d3e c3b9 503e 6423 933e 80dc 1e3e
000002b0: 9192 74be 0362 bfbd d57e 143e a655 1ebd
000002c0: 246c f93e c1e6 9a3b db96 71be 7569 2f3f
000002d0: a82f 4bbe 69fe f2be c4a6 5dbe b7c2 cfbe
000002e0: 3a84 e3be 9bed 9ebe 6276 54be d166 b6bd
000002f0: b4a5 89be f75b 1a3f 2869 8abd ccb1 153f
00000300: c08c 173f 3e73 80bd 24c4 f8bd 2a80 663e
00000310: a714 0a3f 597b 73be 2835 a53d e32a 853e
00000320: b70c 063e 4500 9f3e 5d2f cb3e 6949 e7be
00000330: e519 71bd e0e8 bc3e 88e0 8cbb 854b 263f
00000340: a0a5 09bf f0d2 babb fe2d 62be 91b3 80be
00000350: bbfd afbd da7d 79be d622 9c3e 4e66 aa3d
00000360: 2d3a 0f3f 5c68 9dbe 5bcf d2be 7770 02be
00000370: ca4d a83b 1026 2c3f f9a6 a33d 94ee 91be
00000380: 46d8 47be be4b c1be c924 8f3d c679 633e
00000390: a86b 833e 8e08 333f 16f3 10be 0ad3 893e
000003a0: ba5e 3e3e e058 4b3f cfe6 bd3e e345 8e3c
000003b0: 3d19 ad3e 0955 6a3d 0706 893b 6554 bfbe
000003c0: ae13 1d3e 9925 46be 19e9 243f 99f1 09bf
000003d0: 917c c03e 46b7 fdbe 2684 073f 1c70 383f
000003e0: e627 823e ebee b9be 2c83 57be ca69 c43e
000003f0: 01eb f83e ffd4 85be e0f1 043e 5527 42bd
-0.017700233 0.53743446 0.25873464 0.25328293 0.52550834 -0.19053629 0.3218259 0.31902254
0.2192832 0.36620706 0.5333021 -0.31942907 0.10933331 -0.34544683 0.28236604 -0.12488032
0.4177439 -0.13914761 -0.4169602 0.6245039 -0.040561777 0.6666693 0.64888114 0.12936363
0.1606336 0.2230323 -0.4269997 0.4908979 -0.33848068 0.51960605 -0.013900514 -0.19852993
0.029377101 0.24749523 0.39747658 -0.27117205 -0.15267412 0.3809483 0.42506433 0.1927981
-0.08765447 -0.5390352 -0.29425383 0.3428816 0.03746386 0.5925758 -0.524997 0.015784267
0.1638613 -0.43411085 -0.29912877 -0.2031274 0.35471952 0.27040255 0.6137932 0.10679955
-0.28445324 -0.39033824 -0.035078205 -0.46980533 -0.14035772 -0.35262427 -0.3439214 -0.44761682
-0.1752808 0.34862095 0.32476193 0.56706434 -0.085783005 0.030828675 -0.23704992 -0.46979013
0.46773967 -0.46937913 0.5258036 -0.4504597 -0.46958056 0.16888145 -0.0034217967 -0.34836096
0.48722225 -0.16494596 0.35921058 -0.16073178 -0.44040498 0.4451337 0.3368053 -0.44307533
-0.010028017 0.1361416 0.42261183 -0.18569833 -0.08429468 -0.13221605 -0.2239083 0.43268093
0.34638584 -0.16529097 0.15785812 -0.0405727 0.9061209 0.35251316 0.2923812 0.6941969
0.06791625 0.4504641 -0.15996324 0.1989935 -0.15907456 -0.3425313 0.2802646 0.28677845
0.2938067 -0.28935146 0.09612605 0.26018205 0.16415802 0.07804503 0.23522848 0.6604034
0.2051543 0.6338768 -0.058001034 0.42941993 0.24725321 -0.34653965 -0.1600721 0.30223182
-0.151794 0.39662832 0.44088167 0.60915285 0.42074877 0.28483954 -0.37900248 -0.33110872
-0.23248135 -0.22901092 -0.017586658 0.60800904 -0.027668498 0.41994122 -0.14581272 0.52785903
-0.04465437 0.11295207 0.16624053 0.1443922 -0.11596139 -0.46296397 0.5776508 -0.23718776
0.7612312 -0.1874321 -0.65486395 -0.3071886 0.27706236 -0.37589103 0.5137564 -0.1562048
0.20154591 0.07191141 -0.25271386 0.50855464 0.2795068 -0.1653389 -0.20999044 0.67027617
0.3070453 0.20383362 0.28737938 0.15513802 -0.23884036 -0.09344866 0.14501508 -0.0386559
0.48715317 0.004727215 -0.23592703 0.6852029 -0.19842398 -0.47459725 -0.21645647 -0.40578243
-0.44436818 -0.31040654 -0.20748284 -0.089063294 -0.26884234 0.6029658 -0.06758338 0.5847442
0.5919914 -0.06271981 -0.12146786 0.22509828 0.5393776 -0.23777522 0.080667794 0.26009282
0.13090788 0.31054893 0.39684573 -0.45173195 -0.058862586 0.3689642 -0.004299227 0.64958984
-0.5376835 -0.0057014152 -0.22087857 -0.25136998 -0.08593317 -0.24364415 0.30495328 0.08320294
0.55948144 -0.30743682 -0.41173825 -0.12738214 0.0051362263 0.6724558 0.07990832 -0.28502333
-0.19516096 -0.377531 0.06989438 0.22214422 0.25668073 0.6993493 -0.1415523 0.26918823
0.18590823 0.7943249 0.37090155 0.017367309 0.33808318 0.057210002 0.0041816267 -0.37369075
0.15339538 -0.1935028 0.6441818 -0.53884274 0.37595037 -0.4955389 0.5293602 0.72046065
0.25421065 -0.36315092 -0.21046132 0.3836196 0.48616794 -0.26139066 0.12982893 -0.04740079

l1.bias f4 [8]
00000000: a366 3e3f cc73 f03e 3c25 203f 4026 f33e
00000010: f3ff 503f 6620 4d3f cb42 e03e af6b c73e
0.7437536 0.46963346 0.62556815 0.4749012 0.8164055 0.8012756 0.4380096 0.38949344

l2.weight f4 [8, 8]
00000000: 318f 713f 040c b1be 6bbb be3e e496 b5be
00000010: 56c6 25bb 3849 243f 5db6 7cbe c0b4 9dbf
00000020: b845 b23f 3563 c3bd 319b 963e 7a25 b73d
00000030: 48dd 06bf 896c 123f 92be 963e 1f9c 12bf
00000040: 3f75 553f 885a 89be a451 0abf 00ee 5e3f
00000050: 75f9 3b3e d93d 313f f4ad 823f cd8d b13f
00000060: c85c f03e 8a73 69bf a704 be3f 744a 2ebc
00000070: 66f7 f53e 0ff4 a9bd 7172 ebbe a45a a73e
00000080: f08c 87bf 7932 8a3f 04cd 083e ce39 53bf
00000090: 7f25 753f 15cb ae3e a50b 263f a3b0 0b3f
000000a0: 17a7 02bd 4dfe c13e a33f 1ebf ebf6 843f
000000b0: ca04 573f b522 a23f 7f12 debe 5f89 febe
000000c0: b509 ec3e 0748 9e3e 57e3 913f 68f0 36bf
000000d0: aba0 4d3e 725d 45bf e813 a13f 23e7 003f
000000e0: 927e 4d3c 6e6f 8f3f d03c 593e 7df0 51bf
000000f0: 2b38 913f fc14 173f c998 a6be 55c0 efbe
0.9435912 -0.3457948 0.37252364 -0.35466683 -0.002529522 0.6417422 -0.24678941 -1.2320786
1.3927526 -0.095404066 0.29415277 0.08942695 -0.526814 0.5719686 0.2944227 -0.5726947
0.8338203 -0.26826882 -0.54030824 0.8708191 0.18356879 0.69235 1.0209336 1.3871399
0.46945786 -0.91191924 1.484517 -0.010637868 0.48040313 -0.082985036 -0.4598575 0.3268634
-1.0589886 1.0796653 0.13359457 -0.8251008 0.9576034 0.34139314 0.6486152 0.545664
-0.03189763 0.3788933 -0.6181585 1.0387853 0.8399168 1.2666842 -0.43373486 -0.4971418
0.46101156 0.30914328 1.1397504 -0.7146058 0.20080821 -0.7709571 1.25842 0.50352687
0.012542384 1.1205881 0.21214604 -0.8200758 1.1345266 0.59016395 -0.3253844 -0.46826425

l2.bias f4 [8]
00000000: 1b30 703e c0de de3e aaf1 f03e 6983 503f
00000010: 2380 823e b91e 043f 523a bc3e 5fef 383f
0.23455851 0.4352932 0.47059375 0.81450516 0.25488386 0.5160938 0.36763245 0.7224025

l3.weight f4 [7, 8]
00000000: 6090 9abf 9574 73be c134 9dbf c21f fe3e
00000010: 1be3 943e 97be 4bbf c6e5 2d3f e270 773e
00000020: 7302 ce3e 839e 073f 7148 013f 741d 8fbf
00000030: 408e 7fbf 842d 4a3e 3044 41bf 98b2 5ebf
00000040: 98f2 01c0 4347 7fbe 99fa f03e 2bbf f23e
00000050: e2ca aabe 398f 0a3f f86d a5bf a1c1 c83d
00000060: 8a13 913f d72e 043f 3886 17bf 3a03 d43e
00000070: d5c0 7bbf e43f 82be a534 723e 3108 9f3e
00000080: fc49 853d d155 f8be b5a1 20bf 829b 72bf
00000090: 801c b23e c90b fb3e 9867 a6bf 91d5 383f
000000a0: 2df2 8bbf a155 373e 9d98 143f 16e9 9d3e
000000b0: 2f59 33bf 90a2 55bf c34c 103f ba1c 90bf
000000c0: 1fe9 8fbf a6e5 5bbf 0cb1 753e 1f6d 47bf
000000d0: f6f5 da3e 5a2d c5be b9c0 d23e 36e4 6f3e
-1.207531 -0.23774941 -1.2281724 0.49633604 0.29079518 -0.7958769 0.6792873 0.24164155
0.40236244 0.52976245 0.5050116 -1.1180863 -0.9982643 0.19743925 -0.7549467 -0.8699126
-2.0304317 -0.24929528 0.4706619 0.47411475 -0.33357912 0.5412479 -1.2924185 0.09802557
1.1334088 0.5163397 -0.59189177 0.41408712 -0.98341113 -0.2543937 0.23652895 0.31060937
0.06508252 -0.48502973 -0.62746745 -0.94768536 0.3478737 0.4903243 -1.3000364 0.72200876
-1.0933281 0.17903759 0.5804537 0.30841893 -0.7005796 -0.83451176 0.5636713 -1.1258767
-1.1243018 -0.8589729 0.2399332 -0.7790088 0.42765778 -0.38511163 0.4116266 0.234269

l3.bias f4 [7]
00000000: 3a88 e13b d564 c2bd 35f9 ad3e 9811 873e
00000010: 624b d8bc 51a5 34be 123d 423d
0.0068826945 -0.094918884 0.33979192 0.2638061 -0.026403133 -0.17641188 0.047421522
